bsnn_gesture_model.pth (torch, 99810 bytes, 14 tensors)

bin_conv_1.weight f4 [16, 2, 5, 5]
000000 f6 e8 33 c1 7c d2 3a 3b 88 8f be 3e 8c c1 c6 40
       -11.244375 0.0028506806 0.3721888 6.2111263
000010 27 29 71 41 3f 4c 28 c1 c9 5e 39 c1 99 8c 55 c1
       15.072547 -10.518615 -11.585641 -13.346826
000020 89 ea 34 3e f2 e0 40 41 5e 83 62 be a6 66 2e c1
       0.17667593 12.054918 -0.22120425 -10.900061
000030 0b 2d d1 c1 52 73 41 c1 b2 0a 09 40 c3 fa bf 40
       -26.146994 -12.090654 2.1412778 5.9993606
000040 40 f6 c7 c0 e4 ce 18 c2 a2 02 12 c2 44 0b 3b c1
       -6.24881 -38.20204 -36.50257 -11.69025
000050 8b dc cd 40 4b eb 8a c1 85 3a 56 c2 0c 56 44 c2
       6.4331717 -17.36489 -53.557148 -49.08403
000060 70 a8 a4 c0 11 9c 98 c0 02 b9 d5 40 bb e0 c9 40
       -5.145561 -4.769051 6.678834 6.308683
000070 03 3c ba 40 b1 1c ae 40 22 c2 26 bf d9 db b3 bf
       5.8198256 5.4410024 -0.65139973 -1.4051467
000080 f9 68 e3 c0 cc 39 f3 bf 22 d7 53 40 12 b0 2f 41
       -7.106564 -1.9002013 3.3100057 10.980486
000090 55 71 cf 3f 05 c3 ae c1 ac ab 9e c1 b2 09 26 c1
       1.6206461 -21.845224 -19.833824 -10.377367
0000a0 0d 29 8c 41 29 8f 01 41 f7 2f dd c1 8c e6 2f c2
       17.520044 8.097451 -27.64842 -43.975143
0000b0 9d 7d d2 c1 a4 d3 9c 41 66 a0 81 bf 50 f4 24 c2
       -26.311335 19.60334 -1.0127075 -41.238586
0000c0 70 77 3e c2 45 c9 4f c1 ab ef 5d 3f b4 42 a2 3f
       -47.61664 -12.986638 0.8669383 1.2676606
0000d0 6d a1 38 bf 26 b6 94 c1 9e b4 30 c2 fa e9 d1 c0
       -0.72121316 -18.58894 -44.176384 -6.5598116
0000e0 f3 0a d8 be ff 5b 13 bf 52 c7 4e c1 8c 21 f2 c1
       -0.42195854 -0.5756225 -12.923662 -30.26638
0000f0 18 04 e1 c0 38 32 5d c0 16 04 33 3e d4 d8 d9 bf
       -7.0317497 -3.45619 0.17482027 -1.7019296
000100 29 e7 3e c1 d9 85 a4 40 fd b6 98 3f cd 80 b7 3f
       -11.931436 5.141339 1.1930844 1.4336182
000110 8f 80 8d 40 53 95 8b 3f c9 5f fb 41 12 68 b0 41
       4.421943 1.0904945 31.42177 22.050816
000120 0e 59 33 41 3a a5 33 41 8f 87 62 41 44 81 2c c1
       11.209242 11.2278385 14.158095 -10.781559
000130 9b 18 57 c1 de bf 89 c1 99 9b cf c1 a3 9f 13 c2
       -13.443507 -17.218685 -25.950975 -36.905895
000140 06 bb 84 c1 b2 03 17 c1 df 98 76 c1 fb ac b5 c1
       -16.59132 -9.438402 -15.412322 -22.709463
000150 bd a3 e3 c1 c2 97 5e c1 1e 0e 45 c1 ae c4 34 c1
       -28.45495 -13.91205 -12.315947 -11.2980175
000160 5d 25 1f c1 db 0f 54 c1 cb 26 62 c0 72 a2 a3 c0
       -9.946622 -13.253871 -3.5336177 -5.1135798
000170 8c c5 db c0 81 92 ac bf 9d 41 2b bd 54 11 91 41
       -6.8678646 -1.348221 -0.04181062 18.133461
000180 64 2a 72 41 c1 19 bd 40 62 d7 17 41 a9 93 6d 41
       15.135349 5.909394 9.490084 14.84855
000190 78 e9 c2 c1 66 f2 e8 c1 92 0f fd c1 e7 29 f0 c1
       -24.363998 -29.118359 -31.632603 -30.02046
0001a0 b4 82 e5 c1 e1 dd d4 c0 87 bc 49 c1 fc 07 8f c1
       -28.68882 -6.652085 -12.608527 -17.878899
0001b0 79 ef 99 c1 d7 31 af c1 7e 3f a7 c0 2e a5 00 c0
       -19.24193 -21.899336 -5.2265005 -2.0100818
0001c0 9f 9f d1 c0 13 fb 4e c0 38 6b 87 c1 9c f1 92 c1
       -6.550735 -3.2340744 -16.927353 -18.367973
0001d0 aa 14 ef c0 07 8c f1 c0 76 a4 6d c0 d2 bb a4 c1
       -7.4712725 -7.548343 -3.713163 -20.59171
0001e0 e8 16 fc c1 f5 fe 37 c1 e9 2d e7 c0 3c d3 d2 bf
       -31.511185 -11.499745 -7.2243543 -1.6470714
0001f0 24 eb 59 c1 3c 16 99 c1 e2 9c a8 c1 34 83 ef c1
       -13.619907 -19.135857 -21.076603 -29.939064
000200 93 e3 c0 c1 97 01 c6 c1 6f 55 32 c0 2c 94 ee c0
       -24.11112 -24.750776 -2.7864645 -7.4555874
000210 22 f2 8f c1 eb cf 89 c1 f5 94 c2 c1 69 0c 38 bf
       -17.993229 -17.226522 -24.322733 -0.71893936
000220 d8 00 47 c0 d3 b0 2d c1 ea bd 2e c1 48 a8 c3 c1
       -3.1094265 -10.85567 -10.921366 -24.457169
000230 18 ad 93 c1 52 9f 32 c1 3a 04 64 c1 a8 b9 6e c1
       -18.459518 -11.163897 -14.251032 -14.920326
000240 6d d9 05 c2 69 13 08 c2 ae 13 cf c1 b3 e3 c1 c1
       -33.46233 -34.018955 -25.88461 -24.236181
000250 94 e8 d2 c1 e1 35 02 c2 3c 8a 08 c1 38 11 79 c1
       -26.363564 -32.552616 -8.533749 -15.566704
000260 bf 52 94 c1 8e 94 b4 c1 1a 17 a3 c1 92 f8 a8 c0
       -18.540403 -22.572536 -20.38628 -5.280343
000270 bb f9 b2 3e 34 73 c6 be dc 05 30 c1 62 1f 4c c1
       0.34956154 -0.38759768 -11.0014305 -12.757662
000280 64 a8 8d c0 7e e2 40 41 63 3e 5c 41 f0 c3 7d 40
       -4.4268055 12.055296 13.765231 3.965084
000290 fe 87 de c0 de 78 8d c1 03 18 27 41 be cf 69 41
       -6.9541006 -17.684017 10.443362 14.613218
0002a0 1f 8f bd 40 59 2c 15 c1 8e d0 b5 c1 f3 b7 87 be
       5.923721 -9.323327 -22.726833 -0.2650753
0002b0 63 e0 ed be 9f f4 d6 c0 78 35 82 c1 15 f6 d7 40
       -0.46460256 -6.717361 -16.276108 6.7487893
0002c0 55 78 90 bf 9a 2c 00 c1 27 03 5c c1 26 40 7a c1
       -1.1286722 -8.010889 -13.75077 -15.640661
0002d0 08 9d 10 41 81 64 39 41 c8 6a d4 40 c0 3f a5 c0
       9.038338 11.587037 6.638035 -5.164032
0002e0 40 af 15 c1 9e e8 6d 40 2a 0e 5f 41 03 5e 5f 41
       -9.355286 3.7173228 13.940958 13.960452
0002f0 e3 c7 20 40 dd 96 eb c0 ed 16 55 c1 48 e3 e3 40
       2.5122 -7.362166 -13.318097 7.1214943
000300 9c cc 1a 41 ca 0e 26 40 c4 f9 72 c1 1b 52 95 c1
       9.674953 2.5946527 -15.185978 -18.66509
000310 79 80 d0 c0 8c f3 1a c1 e1 e9 8b c1 e1 95 c9 c1
       -6.5156827 -9.68446 -17.489199 -25.198183
000320 7c af 5d c1 45 f4 f3 c1 b1 32 1d c2 c8 a3 1b c2
       -13.855343 -30.494272 -39.299503 -38.909943
000330 66 28 23 c2 fb 5e 03 c0 8b b0 8c c1 02 9a cc c1
       -40.78945 -2.0526721 -17.586203 -25.5752
000340 d1 da f5 c1 cf d3 23 c2 11 ef e3 c0 c0 51 72 c1
       -30.731844 -40.956844 -7.122933 -15.1449585
000350 a4 24 c0 c1 d4 52 e6 c1 77 e5 29 c2 3e 33 93 c1
       -24.01789 -28.790443 -42.474087 -18.40002
000360 bb af b2 c1 99 09 dc c1 2d 66 fe c1 47 41 35 c2
       -22.335806 -27.504686 -31.79989 -45.313747
000370 1d 0f c3 c1 9a 8e cd c1 71 a0 f6 c1 16 a1 e7 c1
       -24.38238 -25.69463 -30.82834 -28.953655
000380 a2 74 f4 c1 ca 61 53 40 2e 4f 64 c1 26 06 cd c1
       -30.55695 3.3028436 -14.269331 -25.628002
000390 26 83 b8 c1 78 06 df c1 f1 1b 67 41 55 13 f6 c0
       -23.064037 -27.878159 14.444322 -7.68986
0003a0 5c 5f b0 c1 ad 97 db c1 33 a7 14 c2 25 fe d3 40
       -22.046562 -27.44906 -37.16328 6.6247735
0003b0 12 b4 3c c1 73 ca ce c1 a9 08 f9 c1 f3 a1 29 c2
       -11.7939625 -25.848852 -31.129229 -42.408154
0003c0 e0 f0 df c0 46 0a a4 c1 1f 9c 07 c2 77 43 21 c2
       -6.9981537 -20.505016 -33.902462 -40.315884
0003d0 ff b3 54 c2 61 00 a8 c1 93 20 0a c2 ba ef 36 c2
       -53.175777 -21.000185 -34.53181 -45.734108
0003e0 b4 b4 36 c2 d6 1b 3e c2 a0 4b 26 c1 cd ee 67 3c
       -45.676468 -47.527184 -10.393463 0.014156056
0003f0 f3 1c 77 c0 8e 05 24 c1 ff 39 b1 c1 a6 e6 58 bf
       -3.861142 -10.251356 -22.153318 -0.8472694

bin_conv_1.bias f4 [16]
000000 a4 6f 30 40 a1 bb a1 3f e3 5a 2e 41 9a a0 aa 40
       2.756814 1.2635385 10.897189 5.3321047
000010 0b f6 10 41 39 1d 3c 41 c1 1d e7 c1 91 f8 15 c0
       9.060069 11.757134 -28.889528 -2.3432963
000020 7a db 5f 41 a4 42 54 41 a3 16 88 3f 5c df 24 41
       13.991083 13.26627 1.0631908 10.304531
000030 2b fd aa c1 a7 b4 20 41 0d 5f 18 40 66 c4 3f c1
       -21.373617 10.044105 2.3808014 -11.985449

batch_norm_1.weight f4 [16]
000000 00 00 80 3f 00 00 80 3f 00 00 80 3f 00 00 80 3f
       1.0 1.0 1.0 1.0
000010 00 00 80 3f 00 00 80 3f 00 00 80 3f 00 00 80 3f
       1.0 1.0 1.0 1.0
000020 00 00 80 3f 00 00 80 3f 00 00 80 3f 00 00 80 3f
       1.0 1.0 1.0 1.0
000030 00 00 80 3f 00 00 80 3f 00 00 80 3f 00 00 80 3f
       1.0 1.0 1.0 1.0

batch_norm_1.bias f4 [16]
000000 00 00 00 00 00 00 00 00 00 00 00 00 00 00 00 00
       0.0 0.0 0.0 0.0
000010 00 00 00 00 00 00 00 00 00 00 00 00 00 00 00 00
       0.0 0.0 0.0 0.0
000020 00 00 00 00 00 00 00 00 00 00 00 00 00 00 00 00
       0.0 0.0 0.0 0.0
000030 00 00 00 00 00 00 00 00 00 00 00 00 00 00 00 00
       0.0 0.0 0.0 0.0

batch_norm_1.running_mean f4 [16]
000000 00 00 00 00 00 00 00 00 00 00 00 00 00 00 00 00
       0.0 0.0 0.0 0.0
000010 00 00 00 00 00 00 00 00 00 00 00 00 00 00 00 00
       0.0 0.0 0.0 0.0
000020 00 00 00 00 00 00 00 00 00 00 00 00 00 00 00 00
       0.0 0.0 0.0 0.0
000030 00 00 00 00 00 00 00 00 00 00 00 00 00 00 00 00
       0.0 0.0 0.0 0.0

batch_norm_1.running_var f4 [16]
000000 00 00 80 3f 00 00 80 3f 00 00 80 3f 00 00 80 3f
       1.0 1.0 1.0 1.0
000010 00 00 80 3f 00 00 80 3f 00 00 80 3f 00 00 80 3f
       1.0 1.0 1.0 1.0
000020 00 00 80 3f 00 00 80 3f 00 00 80 3f 00 00 80 3f
       1.0 1.0 1.0 1.0
000030 00 00 80 3f 00 00 80 3f 00 00 80 3f 00 00 80 3f
       1.0 1.0 1.0 1.0

bin_conv_2.weight f4 [32, 16, 5, 5]
000000 be 5e 04 c1 44 bf 6e c1 56 ee 8d c1 6e 46 9a c1
       -8.27313 -14.921696 -17.741375 -19.28439
000010 3e c2 c8 c1 71 a4 05 c0 8c 03 99 c1 9f ee 9b c1
       -25.094845 -2.0881617 -19.126732 -19.491514
000020 3c 07 bb c1 85 62 de c1 df a0 19 c1 ad 35 46 c1
       -23.378532 -27.798105 -9.601775 -12.388104
000030 71 53 07 c1 5d 90 63 c1 2d 46 19 c1 71 40 05 c2
       -8.457871 -14.222745 -9.579633 -33.31293
000040 ba d9 95 c1 c8 a6 b3 c0 50 39 26 c1 56 4a 67 41
       -18.731312 -5.614109 -10.388992 14.455648
000050 a8 08 e4 c1 3d c6 22 c2 0c f4 ff c1 5b 8c f2 c1
       -28.504227 -40.693592 -31.994164 -30.318533
000060 c6 13 2a bf 1e 80 37 41 12 30 51 40 1b 7d df bf
       -0.6643642 11.468779 3.268559 -1.7460054
000070 13 84 32 c1 27 00 8c c1 f7 33 94 41 df 51 8a 40
       -11.157245 -17.500074 18.525373 4.322494
000080 65 fc be c0 8d bf 95 c1 5a ae 97 c1 5f eb 8f bf
       -5.96831 -18.71853 -18.960133 -1.1243705
000090 47 e8 01 bf a8 a0 8e c1 d1 0f 1a c2 96 0f 02 c2
       -0.5074505 -17.828445 -38.515446 -32.51522
0000a0 9d 8d 37 c1 2a a7 7d c0 1e 74 6f c1 ee ba 05 c2
       -11.472074 -3.963328 -14.965849 -33.43255
0000b0 03 31 08 c2 0b 65 0f 40 3f af 3c 40 dc dc 49 40
       -34.047863 2.2405422 2.9481962 3.1541052
0000c0 73 20 4c c1 dc 27 90 c1 f4 5d d9 3e 3f a3 24 bf
       -12.757922 -18.019463 0.42454493 -0.64311594
0000d0 ee 88 9d be 52 7a b2 be 31 5f 25 bf c2 c8 01 bf
       -0.30768532 -0.34858948 -0.64598376 -0.5069696
0000e0 f0 51 1d bf d0 c7 a3 3e 28 fd 39 3e 23 6a 1a be
       -0.6145315 0.31988382 0.18162978 -0.1507955
0000f0 a6 74 84 3e 32 0f ab be 4e 7f ac 3e a6 6c b0 3e
       0.25870246 -0.3341003 0.33690876 0.34457892
000100 a3 2c 3e bf 68 6b d2 3e 9d 86 d0 3e b5 23 77 3d
       -0.7428686 0.4109757 0.40727702 0.060336787
000110 48 ab 5d 3e 38 f7 28 bf 07 7f e6 3e 25 ab b8 be
       0.2164737 -0.66002226 0.4501879 -0.36068073
000120 0c ff 0f bf 7e fb e4 bd 1c a4 19 bf 95 a3 8c c1
       -0.56248546 -0.11180781 -0.60016036 -17.579874
000130 78 ac 51 c1 cb 67 5f c1 a1 34 92 c1 ac 5e 5a c1
       -13.104607 -13.96284 -18.275698 -13.648113
000140 11 04 02 c1 4e 85 93 c0 40 d6 35 c1 56 cd 6a c1
       -8.125993 -4.6100225 -11.364807 -14.675131
000150 9a 50 53 c1 26 41 b0 c0 c8 7b ff c0 d5 a8 99 c1
       -13.207178 -5.5079527 -7.98386 -19.207438
000160 9e c1 9d c1 4d ca 6e c1 47 fe b2 c0 71 e4 a1 c0
       -19.71954 -14.92439 -5.5935397 -5.059136
000170 1f 1e 33 c1 ab b7 6f c1 0c 4b 6f c1 83 5d 3a c1
       -11.194854 -14.982341 -14.955822 -11.64783
000180 f0 ef 35 c1 d1 66 80 c1 43 eb bd c1 a5 7e b5 c1
       -11.3710785 -16.050203 -23.739874 -22.686838
000190 87 ea b8 40 96 b4 e3 40 a6 1e e1 40 83 77 3e c0
       5.778629 7.115794 7.0349913 -2.9760444
0001a0 c1 2a ce c0 41 42 20 41 22 17 1b 41 d5 ee a4 40
       -6.442719 10.016175 9.693148 5.1541543
0001b0 dd 7c 94 c0 92 c9 8d c0 00 0f 38 41 08 9f 23 41
       -4.640242 -4.4308558 11.503662 10.226326
0001c0 20 21 fe 3e 7c e2 bf c0 a2 03 70 c0 d6 bb 23 41
       0.49634647 -5.996397 -3.7502217 10.233358
0001d0 48 7a 6a 41 52 95 d2 40 46 d5 3e c0 1e a7 52 c0
       14.654854 6.5807276 -2.9817672 -3.29145
0001e0 3e 68 b5 40 4d 47 10 41 eb e5 64 40 f1 d3 a6 c0
       5.668975 9.017407 3.576533 -5.2133718
0001f0 96 08 37 c0 89 0b a6 40 f9 67 c3 40 aa 6f 28 41
       -2.859899 5.188908 6.106442 10.527262
000200 4b 67 98 40 ac 00 86 3f 48 cc 11 41 0f c0 46 41
       4.762609 1.0468955 9.112373 12.421889
000210 45 e2 3e 41 54 18 da 40 77 b6 64 40 3e 7a fc 40
       11.930242 6.8154697 3.5736368 7.889922
000220 f1 1a 53 41 86 10 41 41 9c 5b 12 41 ad 44 25 41
       13.1940775 12.066534 9.147366 10.329267
000230 00 7d f1 bf e3 5e c6 40 c6 14 64 41 af be 2f 41
       -1.8866272 6.199083 14.255072 10.984054
000240 7c d2 ce 3f e7 18 2a c1 b6 21 c0 3f 33 99 15 41
       1.6157985 -10.63108 1.5010288 9.349902
000250 8e f1 a4 40 17 76 d2 3f 0d 3f 66 c2 f6 ce 75 c2
       5.1544867 1.6442288 -57.561573 -61.45211
000260 17 74 68 c2 f0 c7 2d c2 fa 75 d2 c1 5c cf 14 c2
       -58.11337 -43.44525 -26.307606 -37.2025
000270 13 3e 2c c2 4d 3b 1b c2 79 52 d1 c1 ea 77 80 c1
       -43.06062 -38.80791 -26.16527 -16.058552
000280 ad 4c 3f c1 71 f7 84 c1 53 57 2f c1 c1 9f 91 c0
       -11.95622 -16.620821 -10.958819 -4.550751
000290 65 62 b0 3f 81 e9 51 41 80 2f 8a bc d3 c0 f8 be
       1.3780028 13.119508 -0.016868353 -0.48584613
0002a0 6e b6 07 be 07 06 e6 40 70 30 5a 41 59 37 ef 3f
       -0.13253185 7.1882358 13.636826 1.8688766
0002b0 44 63 89 c0 63 69 33 c1 7d 7b 87 c0 76 22 69 c2
       -4.2933674 -11.213229 -4.2338243 -58.283653
0002c0 d0 41 56 c2 aa c9 26 c2 99 20 08 c2 08 02 be c1
       -53.56427 -41.696938 -34.031834 -23.750992
0002d0 28 fc 4e c2 37 5b 33 c2 1f 32 10 c2 af 9d 05 c2
       -51.746246 -44.839077 -36.048946 -33.403988
0002e0 ff 7c 83 c1 58 53 38 c2 1f 84 2f c2 31 e3 16 c2
       -16.436033 -46.08139 -43.879025 -37.721867
0002f0 64 af 09 c2 ab e5 75 c1 37 89 20 c2 a8 e2 0d c2
       -34.42128 -15.368571 -40.134 -35.471344
000300 44 a9 e3 c1 fe 67 b1 c1 be c9 36 c1 44 86 23 c1
       -28.45765 -22.175777 -11.424253 -10.22028
000310 e6 73 dc c0 fd 2f 00 c1 49 99 82 c1 88 5d 6a c0
       -6.8891478 -8.011716 -16.324846 -3.6619587
000320 eb d3 cd c1 64 74 2d c1 cf ce b7 c0 29 52 a4 3f
       -25.728476 -10.840916 -5.743995 1.2837573
000330 f4 b6 58 41 9b 06 75 c1 72 09 00 c0 a4 0d 8e 40
       13.544666 -15.314113 -2.0005765 4.439165
000340 9c 92 2b 41 6b bf ab 41 a6 ed 1c c1 58 5a 32 3f
       10.723293 21.468466 -9.80802 0.69669104
000350 96 1a 30 41 59 96 7f 41 f6 44 b4 41 a8 c7 f8 bf
       11.006491 15.974206 22.533672 -1.943593
000360 56 13 39 40 9b f7 51 41 a1 2e a2 41 2a a0 cc 41
       2.8918052 13.122951 20.272768 25.578205
000370 6b 76 10 bf 18 68 06 41 99 79 20 41 3b 89 80 41
       -0.5643069 8.4004135 10.029687 16.067007
000380 89 81 b6 41 bb a7 31 41 d1 33 12 41 58 f3 11 41
       22.81325 11.10345 9.1376505 9.12191
000390 0d 05 0e 41 4a ab e1 40 4c 91 33 41 78 00 22 41
       8.876233 7.0521593 11.222973 10.125114
0003a0 fb 02 20 41 78 78 17 41 f7 1d fd 40 6e 65 1b 41
       10.000728 9.466911 7.909908 9.712263
0003b0 4a 29 15 41 16 af 1e 41 cf 92 16 41 ec fb 06 41
       9.32258 9.917746 9.410842 8.436504
0003c0 3f ef 10 41 94 1f 0f 41 d5 15 1c 41 bb b9 19 41
       9.05841 8.9452095 9.75533 9.607844
0003d0 4e b6 15 41 15 07 19 41 f3 7b 0d 41 7c e8 22 41
       9.357008 9.564229 8.842761 10.181759
0003e0 ca 36 29 41 f9 ae 1f 41 e1 8b ff c1 c7 da f5 c1
       10.575876 9.980218 -31.9433 -30.731825
0003f0 2f 66 d5 c1 34 95 9a c1 2d f3 45 c1 e1 bd d9 c1
       -26.674894 -19.322853 -12.371869 -27.217714

bin_conv_2.bias f4 [32]
000000 f0 0b 90 c1 29 63 87 bf 19 e8 76 c0 0e 3a f2 bf
       -18.005829 -1.0577136 -3.857916 -1.8923967
000010 c7 44 9a 3c d9 c0 30 c0 bf f3 85 c0 a5 08 20 c0
       0.018831624 -2.7617705 -4.186004 -2.5005276
000020 3e dd 82 c1 95 dc 23 40 39 b5 44 c0 6a 38 08 c0
       -16.358028 2.5603383 -3.073561 -2.1284432
000030 c7 d1 95 c0 70 4b 5f c1 63 f3 65 3f b8 d9 7f 40
       -4.6818576 -13.955917 0.89824504 3.9976635
000040 2d 01 29 be 96 a6 ad c0 e6 ac 6d bf 76 09 6c 3f
       -0.16504355 -5.426585 -0.9284195 0.92201936
000050 66 14 db bf 92 c4 d1 c0 99 74 24 3e 14 fd 70 c0
       -1.71156 -6.5552454 0.16060103 -3.7654467
000060 cb 84 d6 bf ad 80 3d c0 c1 dc ba c0 4e 58 91 c0
       -1.6759275 -2.9609787 -5.8394475 -4.5420294
000070 62 06 17 c0 32 9a 30 3e a8 58 dc c0 c8 fe ce 3e
       -2.3597646 0.17246321 -6.8858223 0.40428758

batch_norm_2.weight f4 [32]
000000 00 00 80 3f 00 00 80 3f 00 00 80 3f 00 00 80 3f
       1.0 1.0 1.0 1.0
000010 00 00 80 3f 00 00 80 3f 00 00 80 3f 00 00 80 3f
       1.0 1.0 1.0 1.0
000020 00 00 80 3f 00 00 80 3f 00 00 80 3f 00 00 80 3f
       1.0 1.0 1.0 1.0
000030 00 00 80 3f 00 00 80 3f 00 00 80 3f 00 00 80 3f
       1.0 1.0 1.0 1.0
000040 00 00 80 3f 00 00 80 3f 00 00 80 3f 00 00 80 3f
       1.0 1.0 1.0 1.0
000050 00 00 80 3f 00 00 80 3f 00 00 80 3f 00 00 80 3f
       1.0 1.0 1.0 1.0
000060 00 00 80 3f 00 00 80 3f 00 00 80 3f 00 00 80 3f
       1.0 1.0 1.0 1.0
000070 00 00 80 3f 00 00 80 3f 00 00 80 3f 00 00 80 3f
       1.0 1.0 1.0 1.0

batch_norm_2.bias f4 [32]
000000 00 00 00 00 00 00 00 00 00 00 00 00 00 00 00 00
       0.0 0.0 0.0 0.0
000010 00 00 00 00 00 00 00 00 00 00 00 00 00 00 00 00
       0.0 0.0 0.0 0.0
000020 00 00 00 00 00 00 00 00 00 00 00 00 00 00 00 00
       0.0 0.0 0.0 0.0
000030 00 00 00 00 00 00 00 00 00 00 00 00 00 00 00 00
       0.0 0.0 0.0 0.0
000040 00 00 00 00 00 00 00 00 00 00 00 00 00 00 00 00
       0.0 0.0 0.0 0.0
000050 00 00 00 00 00 00 00 00 00 00 00 00 00 00 00 00
       0.0 0.0 0.0 0.0
000060 00 00 00 00 00 00 00 00 00 00 00 00 00 00 00 00
       0.0 0.0 0.0 0.0
000070 00 00 00 00 00 00 00 00 00 00 00 00 00 00 00 00
       0.0 0.0 0.0 0.0

batch_norm_2.running_mean f4 [32]
000000 00 00 00 00 00 00 00 00 00 00 00 00 00 00 00 00
       0.0 0.0 0.0 0.0
000010 00 00 00 00 00 00 00 00 00 00 00 00 00 00 00 00
       0.0 0.0 0.0 0.0
000020 00 00 00 00 00 00 00 00 00 00 00 00 00 00 00 00
       0.0 0.0 0.0 0.0
000030 00 00 00 00 00 00 00 00 00 00 00 00 00 00 00 00
       0.0 0.0 0.0 0.0
000040 00 00 00 00 00 00 00 00 00 00 00 00 00 00 00 00
       0.0 0.0 0.0 0.0
000050 00 00 00 00 00 00 00 00 00 00 00 00 00 00 00 00
       0.0 0.0 0.0 0.0
000060 00 00 00 00 00 00 00 00 00 00 00 00 00 00 00 00
       0.0 0.0 0.0 0.0
000070 00 00 00 00 00 00 00 00 00 00 00 00 00 00 00 00
       0.0 0.0 0.0 0.0

batch_norm_2.running_var f4 [32]
000000 00 00 80 3f 00 00 80 3f 00 00 80 3f 00 00 80 3f
       1.0 1.0 1.0 1.0
000010 00 00 80 3f 00 00 80 3f 00 00 80 3f 00 00 80 3f
       1.0 1.0 1.0 1.0
000020 00 00 80 3f 00 00 80 3f 00 00 80 3f 00 00 80 3f
       1.0 1.0 1.0 1.0
000030 00 00 80 3f 00 00 80 3f 00 00 80 3f 00 00 80 3f
       1.0 1.0 1.0 1.0
000040 00 00 80 3f 00 00 80 3f 00 00 80 3f 00 00 80 3f
       1.0 1.0 1.0 1.0
000050 00 00 80 3f 00 00 80 3f 00 00 80 3f 00 00 80 3f
       1.0 1.0 1.0 1.0
000060 00 00 80 3f 00 00 80 3f 00 00 80 3f 00 00 80 3f
       1.0 1.0 1.0 1.0
000070 00 00 80 3f 00 00 80 3f 00 00 80 3f 00 00 80 3f
       1.0 1.0 1.0 1.0

bin_fc_1.weight f4 [11, 800]
000000 b6 59 2c 3e 4e ec 0e 3f 29 e4 e6 be 5f 3c a1 bd
       0.16831097 0.5582932 -0.45095947 -0.07872843
000010 9b 93 99 3f ee 0c fa be 72 9c d6 be a1 5a e1 be
       1.1998171 -0.4883799 -0.41916233 -0.44014457
000020 59 c4 fa be 29 42 55 3f ea f5 e8 be d2 1e ea be
       -0.48977926 0.8330408 -0.45500118 -0.4572664
000030 0d 1f e0 be 07 de f5 be de 32 b2 be 38 1f ea be
       -0.4377369 -0.48020956 -0.34804434 -0.45726943
000040 bc 12 d7 be ee 43 d3 be d1 c2 ef be a6 3c 10 3f
       -0.4200648 -0.41262764 -0.4682832 0.5634254
000050 f3 35 e3 be 64 05 d3 be 54 e8 f6 be 70 f7 eb be
       -0.44377097 -0.4121505 -0.48224127 -0.46087217
000060 7c 2e 08 3f 61 96 bc c1 b1 2f 80 c1 b4 52 bb c1
       0.5319593 -23.573427 -16.023287 -23.415382
000070 71 84 a7 bf 94 82 35 40 7a 50 86 41 f1 65 4f 41
       -1.3087293 2.8360949 16.789295 12.962388
000080 20 ac 38 3f 29 04 71 c1 30 97 15 41 a5 6e 44 40
       0.7213764 -15.063516 9.349411 3.0692532
000090 11 19 b4 c1 51 81 4b 41 b3 58 12 42 d0 9f 6b 41
       -22.51224 12.719071 36.58662 14.726517
0000a0 4d 68 4d c2 51 26 6c c2 7b e3 bb c1 7b eb 0d 42
       -51.351856 -59.03742 -23.486074 35.47996
0000b0 60 58 03 41 45 75 83 42 40 c2 a5 c0 83 6c b2 c1
       8.209076 65.72904 -5.179962 -22.302984
0000c0 ed e6 ad 41 50 19 cd c0 ca e3 4b c1 ec 4d 60 40
       21.737757 -6.40934 -12.743113 3.504756
0000d0 21 4c 82 40 b4 e0 ba 41 a3 a4 b2 41 96 2d 8e c0
       4.071793 23.359718 22.330389 -4.4430647
0000e0 3c 05 22 40 fa be da 40 45 ab 13 42 ab 11 22 42
       2.5315695 6.8358126 36.917255 40.517254
0000f0 64 2f 71 c1 c5 91 53 42 14 b0 f1 3e 84 14 8d c1
       -15.07407 52.892353 0.4720465 -17.635017
000100 0b 92 c6 bd 56 eb bf 41 1a 3f 1f c0 8e c0 e3 3e
       -0.09695824 23.98991 -2.4882264 0.44482845
000110 52 4d 68 41 6f ef af c0 60 d2 a0 c0 46 62 ac 40
       14.518877 -5.4979777 -5.0256805 5.3869963
000120 d3 e1 11 c2 88 52 a9 c1 63 f4 c9 c1 b2 56 bc 40
       -36.47053 -21.165298 -25.24433 5.885583
000130 56 7a b8 c0 1d eb 70 40 f0 b3 b9 3f 63 e3 8b 41
       -5.7649336 3.7643502 1.4508038 17.486029
000140 f6 23 f8 41 77 d9 1d 42 82 71 60 42 50 a7 03 3f
       31.01756 39.462368 56.110847 0.51427174
000150 21 c2 eb c1 76 39 85 42 5c e4 16 bf 48 96 da 42
       -29.46979 66.61223 -0.589422 109.29352
000160 14 95 96 41 ee c6 1a c2 af 43 0f c2 28 b4 3c 3f
       18.822792 -38.694267 -35.816097 0.73712397
000170 df 93 81 42 66 45 90 bf 19 ac 49 42 08 44 e8 bf
       64.78881 -1.1271179 50.418064 -1.8145761
000180 92 29 29 40 3d a5 4b 41 51 fd 73 c1 5f 12 9c 41
       2.6431623 12.727841 -15.249345 19.50897
000190 2d f2 0a c0 e6 60 5e 41 97 2b 55 c1 8d c3 95 c1
       -2.1710312 13.898657 -13.323142 -18.720484
0001a0 53 ae 40 41 da 81 0c 41 bb e0 92 bc b0 24 2f 40
       12.04256 8.781702 -0.017929425 2.7366142
0001b0 5b 13 49 40 27 6b 90 3d c1 08 af 42 ec e7 4e 3f
       3.1418064 0.07051688 87.5171 0.80822635
0001c0 ff d9 1e c2 15 d0 bf 41 ff d1 8e c1 51 7e 73 41
       -39.712887 23.976603 -17.852537 15.218339
0001d0 7d 26 8c c1 bf a6 04 42 ec c8 10 c1 16 6c f5 c1
       -17.518793 33.162838 -9.049053 -30.677776
0001e0 bd 01 2f c2 5c 0f 34 c2 ba 0d 30 42 70 31 09 c0
       -43.751698 -45.015 44.013405 -2.1436424
0001f0 f7 aa 05 42 ce 0a 63 41 51 f4 41 bf 74 a1 f8 c0
       33.416958 14.190138 -0.7576342 -7.7697086
000200 35 40 bf 41 50 a2 bc 41 fb 76 57 c1 67 eb cd 40
       23.906351 23.579254 -13.466548 6.4349856
000210 3d fe 19 c1 7a c5 34 c0 83 c7 8d c1 08 19 5c c1
       -9.62457 -2.824553 -17.722418 -13.756111
000220 5c 8d 24 41 e4 5b 69 42 5e f1 b7 be cc db c0 41
       10.284512 58.339737 -0.35926336 24.107323
000230 f2 ab f3 bf 0f 89 ef 40 9a 3c 61 41 59 26 35 c1
       -1.9036849 7.485481 14.077295 -11.321862
000240 02 31 0f c2 1a 47 5a 40 48 6d 36 c1 36 4d 2a 41
       -35.79786 3.4105897 -11.40168 10.64385
000250 7d 0c 37 3f b1 e2 98 c1 8e 94 8a 41 41 cc df c0
       0.7150343 -19.11069 17.322536 -6.9936833
000260 a0 33 85 c1 ac b7 4b c1 01 0f a6 3f 58 fd 82 41
       -16.650208 -12.732342 1.2973329 16.373703
000270 07 ea a0 c1 9a 9c c7 40 82 9b 47 c0 81 a2 79 3f
       -20.114271 6.2378664 -3.1188664 0.97513586
000280 7d 32 74 3d 8c 25 1f 40 41 5f 20 42 12 22 20 41
       0.059618462 2.4866667 40.09302 10.008318
000290 58 83 b9 40 e4 e0 13 bf ae 35 52 41 e2 61 4a 42
       5.797283 -0.5776503 13.138105 50.59559
0002a0 90 76 db c1 ca 84 84 3d d4 03 33 40 d4 ed 52 3e
       -27.432892 0.0647064 2.7971087 0.20598537
0002b0 bd c0 79 41 13 80 bd c1 04 81 39 41 7c 44 26 42
       15.609555 -23.687536 11.593998 41.56688
0002c0 c7 b0 a6 c1 f0 6e 91 3f b5 17 85 40 fb 9c 0e 42
       -20.836317 1.136198 4.159144 35.6533
0002d0 c6 76 29 41 43 d0 06 c2 2e be 0e c1 85 1e 4f 42
       10.591497 -33.70338 -8.921431 51.779804
0002e0 85 ac 3f 41 f1 bd 2b c2 b4 d1 f5 c1 2e 59 17 42
       11.979619 -42.93549 -30.727394 37.83709
0002f0 d0 ae 37 c1 9f 58 5a 42 57 09 57 40 c0 5d 8d c2
       -11.480179 54.586544 3.359945 -70.683105
000300 cb fa ea 40 7b cf fb c1 88 56 1c c2 ca 73 87 42
       7.3431144 -31.476309 -39.084503 67.72615
000310 22 cf 03 c2 f4 70 c1 41 c1 14 d4 c1 0a 2e e3 c1
       -32.95228 24.180153 -26.510134 -28.39748
000320 c5 c3 4c 40 52 60 21 42 00 7b fb c1 16 c5 e5 c1
       3.1994488 40.344063 -31.435059 -28.721233
000330 d7 0f 69 3f d7 eb 40 41 b8 67 ec c0 71 e4 46 c0
       0.91039795 12.057578 -7.387661 -3.107693
000340 c9 80 2c 41 ea fe c0 c1 da 70 5d c1 cf 01 a5 c0
       10.781442 -24.12447 -13.840052 -5.156471
000350 45 d3 4f c2 69 1c 2b 3f a2 07 ad c1 86 ea ae c1
       -51.956318 0.66840225 -21.628727 -21.864513
000360 80 c3 f8 c1 96 74 06 c2 d5 1d a4 c1 df 3e 1c 41
       -31.095459 -33.613853 -20.514566 9.765349
000370 48 9e b5 bf 0e 35 9a 40 68 e0 a8 c0 d6 8d b0 c0
       -1.4188929 4.8189764 -5.2773933 -5.517314
000380 35 70 a0 40 2f 59 14 41 96 c9 8c 41 de 05 eb c0
       5.013697 9.271773 17.59843 -7.344466
000390 52 81 b8 41 fc b6 01 c0 87 f8 29 42 ac fa a8 41
       23.063145 -2.0267935 42.492702 21.122398
0003a0 b3 2f b3 3f bc fb 40 42 39 a0 98 40 c8 7a af bc
       1.3998932 48.245834 4.7695584 -0.021420851
0003b0 ec 8d a6 c0 74 ed b2 40 04 08 c8 40 ce 24 0b c2
       -5.2048244 5.591486 6.2509785 -34.785942
0003c0 ef 38 b0 41 72 d9 a0 3c 7e 21 e9 c1 2e 03 82 42
       22.0278 0.019634936 -29.141354 65.00621
0003d0 5d c3 44 42 b0 3d c3 41 5d 67 af 40 8f 27 64 bf
       49.190784 24.40512 5.4813676 -0.8912286
0003e0 0a f7 f9 42 63 33 8b 40 fb dc 9a c0 2d 20 27 c1
       124.9825 4.350023 -4.839475 -10.445355
0003f0 3b 96 73 41 c9 7d d1 41 a8 1c 4a 42 21 66 4a c1
       15.224177 26.186419 50.527985 -12.649934

bin_fc_1.bias f4 [11]
000000 4d 45 39 40 58 e9 a3 40 83 76 bd 3f d3 a8 f9 40
       2.8948548 5.1222343 1.4801792 7.8018584
000010 f9 7f f2 40 b5 ea ee 40 af 27 d9 40 fd 02 bd 40
       7.5781217 7.4661508 6.786094 5.906615
000020 13 bd d9 40 72 3d 80 40 4d 87 22 41
       6.8043303 4.0075006 10.158032
